…
  File "/home/schlecht/nobackup/MinigridCurriculumLearning/utils/storage.py", line 16, in create_folders_if_necessary
    os.makedirs(dirname)
  File "/home/schlecht/tmp/Anaconda/home/schlecht/AnacondaNeu/lib/python3.10/os.py", line 225, in makedirs
    mkdir(name, mode)
FileExistsError: [Errno 17] File exists: 'storage/rrh_250k_3step_s9152'
pygame 2.4.0 (SDL 2.26.4, Python 3.10.9)
Hello from the pygame community. https://www.pygame.org/contribute.html
srun: launch/slurm: _task_finish: Received task exit notification for 1 task of StepId=1098566.0 (status=0x0100).
srun: error: helena1: task 0: Exited with exit code 1
ACModel(
  (image_conv): Sequential(
    (0): Conv2d(3, 16, kernel_size=(2, 2), stride=(1, 1))
    (1): ReLU()
    (2): MaxPool2d(kernel_size=(2, 2), stride=(2, 2), padding=0, dilation=1, ceil_mode=False)
    (3): Conv2d(16, 64, kernel_size=(2, 2), stride=(1, 1))
    (4): ReLU()
  )
  (actor): Sequential(
    (0): Linear(in_features=64, out_features=64, bias=True)
    (1): Tanh()
    (2): Linear(in_features=64, out_features=7, bias=True)
  )
  (critic): Sequential(
    (0): Linear(in_features=64, out_features=64, bias=True)
    (1): Tanh()
    (2): Linear(in_features=64, out_features=1, bias=True)
  )
)
Created model rrh_250k_3step_s9152/epoch_0

The training will go on for 21 epochs

ACModel(
  (image_conv): Sequential(
    (0): Conv2d(3, 16, kernel_size=(2, 2), stride=(1, 1))
    (1): ReLU()
    (2): MaxPool2d(kernel_size=(2, 2), stride=(2, 2), padding=0, dilation=1, ceil_mode=False)
    (3): Conv2d(16, 64, kernel_size=(2, 2), stride=(1, 1))
    (4): ReLU()
  )
  (actor): Sequential(
    (0): Linear(in_features=64, out_features=64, bias=True)
    (1): Tanh()
    (2): Linear(in_features=64, out_features=7, bias=True)
  )
  (critic): Sequential(
    (0): Linear(in_features=64, out_features=64, bias=True)
    (1): Tanh()
    (2): Linear(in_features=64, out_features=1, bias=True)
  )
)
Created model rrh_250k_3step_s9152/epoch_0

Trained on ['MiniGrid-DoorKey-8x8-custom-diff1.0', 'MiniGrid-DoorKey-12x12-custom-diff1.0'] using model rrh_250k_3step_s9152/epoch_1_curric0 for 253952 frames. Duration 230.33083033561707. Fps: ??
Evaluate agent TEST 0.7043593721464276

Trained on ['MiniGrid-DoorKey-12x12-custom-diff1.0', 'MiniGrid-DoorKey-6x6-custom-diff1.0'] using model rrh_250k_3step_s9152/epoch_1_curric0 for 253952 frames. Duration 230.92429184913635. Fps: ??
…
