…
Hello from the pygame community. https://www.pygame.org/contribute.html
pygame 2.4.0 (SDL 2.26.4, Python 3.10.9)
Hello from the pygame community. https://www.pygame.org/contribute.html
pygame 2.4.0 (SDL 2.26.4, Python 3.10.9)
Hello from the pygame community. https://www.pygame.org/contribute.html
pygame 2.4.0 (SDL 2.26.4, Python 3.10.9)
Hello from the pygame community. https://www.pygame.org/contribute.html
    mkdir(name, mode)
FileExistsError: [Errno 17] File exists: 'storage/rrh_250k_3step_s8258'
pygame 2.4.0 (SDL 2.26.4, Python 3.10.9)
Hello from the pygame community. https://www.pygame.org/contribute.html
ACModel(
  (image_conv): Sequential(
    (0): Conv2d(3, 16, kernel_size=(2, 2), stride=(1, 1))
    (1): ReLU()
    (2): MaxPool2d(kernel_size=(2, 2), stride=(2, 2), padding=0, dilation=1, ceil_mode=False)
    (3): Conv2d(16, 64, kernel_size=(2, 2), stride=(1, 1))
    (4): ReLU()
  )
  (actor): Sequential(
    (0): Linear(in_features=64, out_features=64, bias=True)
    (1): Tanh()
    (2): Linear(in_features=64, out_features=7, bias=True)
  )
  (critic): Sequential(
    (0): Linear(in_features=64, out_features=64, bias=True)
    (1): Tanh()
    (2): Linear(in_features=64, out_features=1, bias=True)
  )
)
Created model rrh_250k_3step_s8258/epoch_0

The training will go on for 17 epochs

ACModel(
  (image_conv): Sequential(
    (0): Conv2d(3, 16, kernel_size=(2, 2), stride=(1, 1))
    (1): ReLU()
    (2): MaxPool2d(kernel_size=(2, 2), stride=(2, 2), padding=0, dilation=1, ceil_mode=False)
    (3): Conv2d(16, 64, kernel_size=(2, 2), stride=(1, 1))
    (4): ReLU()
  )
  (actor): Sequential(
    (0): Linear(in_features=64, out_features=64, bias=True)
    (1): Tanh()
    (2): Linear(in_features=64, out_features=7, bias=True)
  )
  (critic): Sequential(
    (0): Linear(in_features=64, out_features=64, bias=True)
    (1): Tanh()
    (2): Linear(in_features=64, out_features=1, bias=True)
  )
)
Created model rrh_250k_3step_s8258/epoch_0
srun: launch/slurm: _task_finish: Received task exit notification for 5 tasks of StepId=1101241.1 (status=0x0100).
srun: error: helena1: tasks 0-1,3-5: Exited with exit code 1

Trained on ['MiniGrid-DoorKey-6x6-custom-diff1.0', 'MiniGrid-DoorKey-8x8-custom-diff1.0'] using model rrh_250k_3step_s8258/epoch_1_curric0 for 253952 frames. Duration 222.76216888427734. Fps: ??
…
