…
Hello from the pygame community. https://www.pygame.org/contribute.html
Device: cpu
    utils.create_folders_if_necessary(path)
Creating model. . .
  File "/home/schlecht/nobackup/MinigridCurriculumLearning/utils/storage.py", line 16, in create_folders_if_necessary
    os.makedirs(dirname)
  File "/home/schlecht/tmp/Anaconda/home/schlecht/AnacondaNeu/lib/python3.10/os.py", line 225, in makedirs
    mkdir(name, mode)
FileExistsError: [Errno 17] File exists: 'storage/debug_100k_3step_3gen_3curric_s95239'
pygame 2.4.0 (SDL 2.26.4, Python 3.10.9)
Hello from the pygame community. https://www.pygame.org/contribute.html
ACModel(
  (image_conv): Sequential(
    (0): Conv2d(3, 16, kernel_size=(2, 2), stride=(1, 1))
    (1): ReLU()
    (2): MaxPool2d(kernel_size=(2, 2), stride=(2, 2), padding=0, dilation=1, ceil_mode=False)
    (3): Conv2d(16, 64, kernel_size=(2, 2), stride=(1, 1))
    (4): ReLU()
  )
  (actor): Sequential(
    (0): Linear(in_features=64, out_features=64, bias=True)
    (1): Tanh()
    (2): Linear(in_features=64, out_features=7, bias=True)
  )
  (critic): Sequential(
    (0): Linear(in_features=64, out_features=64, bias=True)
    (1): Tanh()
    (2): Linear(in_features=64, out_features=1, bias=True)
  )
)
Created model debug_100k_3step_3gen_3curric_s95239/epoch_0
Copied Agent! debug_100k_3step_3gen_3curric_s95239/epoch_0 ---> debug_100k_3step_3gen_3curric_s95239/epoch_1

The training will go on for 51 epochs

srun: launch/slurm: _task_finish: Received task exit notification for 1 task of StepId=1097828.0 (status=0x0100).
srun: error: paris4: task 1: Exited with exit code 1
ACModel(
  (image_conv): Sequential(
    (0): Conv2d(3, 16, kernel_size=(2, 2), stride=(1, 1))
    (1): ReLU()
    (2): MaxPool2d(kernel_size=(2, 2), stride=(2, 2), padding=0, dilation=1, ceil_mode=False)
    (3): Conv2d(16, 64, kernel_size=(2, 2), stride=(1, 1))
    (4): ReLU()
  )
  (actor): Sequential(
    (0): Linear(in_features=64, out_features=64, bias=True)
    (1): Tanh()
    (2): Linear(in_features=64, out_features=7, bias=True)
  )
  (critic): Sequential(
    (0): Linear(in_features=64, out_features=64, bias=True)
    (1): Tanh()
    (2): Linear(in_features=64, out_features=1, bias=True)
  )
)
Created model debug_100k_3step_3gen_3curric_s95239/epoch_0

--------------------------------------------------------------
                     START EPOCH 1
--------------------------------------------------------------

Copied Agent! debug_100k_3step_3gen_3curric_s95239/epoch_1 ---> debug_100k_3step_3gen_3curric_s95239/epoch_1_curric0_gen1
	Algorithm loaded in 1.27 sec
…
