…
srun: nodes               : 1
srun: verbose             : 1
srun: -------------------- --------------------
srun: end of defined options
srun: jobid 1096149: nodes(1):`nox', cpu counts: 6(x1)
srun: launch/slurm: launch_p_step_launch: CpuBindType=(null type)
srun: launching StepId=1096149.0 on host nox, 1 tasks: 0
srun: route/default: init: route default plugin loaded
srun: launch/slurm: _task_start: Node nox, 1 tasks started
pygame 2.4.0 (SDL 2.26.4, Python 3.10.9)
Hello from the pygame community. https://www.pygame.org/contribute.html
Device: cpu
Creating model. . .
ACModel(
  (image_conv): Sequential(
    (0): Conv2d(3, 16, kernel_size=(2, 2), stride=(1, 1))
    (1): ReLU()
    (2): MaxPool2d(kernel_size=(2, 2), stride=(2, 2), padding=0, dilation=1, ceil_mode=False)
    (3): Conv2d(16, 64, kernel_size=(2, 2), stride=(1, 1))
    (4): ReLU()
  )
  (actor): Sequential(
    (0): Linear(in_features=64, out_features=64, bias=True)
    (1): Tanh()
    (2): Linear(in_features=64, out_features=7, bias=True)
  )
  (critic): Sequential(
    (0): Linear(in_features=64, out_features=64, bias=True)
    (1): Tanh()
    (2): Linear(in_features=64, out_features=1, bias=True)
  )
)
Created model 25k_3step_3gen_3curric_s1/epoch_0
Copied Agent! 25k_3step_3gen_3curric_s1/epoch_0 ---> 25k_3step_3gen_3curric_s1/epoch_1

The training will go on for 201 epochs

ACModel(
  (image_conv): Sequential(
    (0): Conv2d(3, 16, kernel_size=(2, 2), stride=(1, 1))
    (1): ReLU()
    (2): MaxPool2d(kernel_size=(2, 2), stride=(2, 2), padding=0, dilation=1, ceil_mode=False)
    (3): Conv2d(16, 64, kernel_size=(2, 2), stride=(1, 1))
    (4): ReLU()
  )
  (actor): Sequential(
    (0): Linear(in_features=64, out_features=64, bias=True)
    (1): Tanh()
    (2): Linear(in_features=64, out_features=7, bias=True)
  )
  (critic): Sequential(
    (0): Linear(in_features=64, out_features=64, bias=True)
    (1): Tanh()
    (2): Linear(in_features=64, out_features=1, bias=True)
  )
)
Created model 25k_3step_3gen_3curric_s1/epoch_0

--------------------------------------------------------------
                     START EPOCH 1
--------------------------------------------------------------

Copied Agent! 25k_3step_3gen_3curric_s1/epoch_1 ---> 25k_3step_3gen_3curric_s1/epoch_1_curric0_gen1
	Algorithm loaded in 0.13 sec
	['MiniGrid-DoorKey-8x8-custom-diff1.0', 'MiniGrid-DoorKey-10x10-custom-diff1.0'] | 25k_3step_3gen_3curric_s1/epoch_1_curric0_gen1 | curF 4096 | U 1 | AllF 0004096 | FPS 0955 | D 4 | rR:msmM 0.000 0.00 0.00 0.00 | F:msmM 0.0 0.0 0 0 | H 1.73 | V 0.1802 | pL 0.0191 | vL 0.0277 | g 0.1738
…
