Device: cuda
curricula list start [[['MiniGrid-DoorKey-6x6-custom-diff0', 'MiniGrid-DoorKey-12x12-custom-diff0'], ['MiniGrid-DoorKey-12x12-custom-diff0', 'MiniGrid-DoorKey-8x8-custom-diff0']], [['MiniGrid-DoorKey-8x8-custom-diff0', 'MiniGrid-DoorKey-8x8-custom-diff0'], ['MiniGrid-DoorKey-10x10-custom-diff0', 'MiniGrid-DoorKey-12x12-custom-diff0']]]
Creating model. . .
ACModel(
  (image_conv): Sequential(
    (0): Conv2d(3, 16, kernel_size=(2, 2), stride=(1, 1))
    (1): ReLU()
    (2): MaxPool2d(kernel_size=(2, 2), stride=(2, 2), padding=0, dilation=1, ceil_mode=False)
    (3): Conv2d(16, 64, kernel_size=(2, 2), stride=(1, 1))
    (4): ReLU()
  )
  (actor): Sequential(
    (0): Linear(in_features=64, out_features=64, bias=True)
    (1): Tanh()
    (2): Linear(in_features=64, out_features=7, bias=True)
  )
  (critic): Sequential(
    (0): Linear(in_features=64, out_features=64, bias=True)
    (1): Tanh()
    (2): Linear(in_features=64, out_features=1, bias=True)
  )
)
Created model Testrun123\epoch_0
Copied Agent! Testrun123\epoch_0 ---> Testrun123\epoch_1

The training will go on for 25 epochs

ACModel(
  (image_conv): Sequential(
    (0): Conv2d(3, 16, kernel_size=(2, 2), stride=(1, 1))
    (1): ReLU()
    (2): MaxPool2d(kernel_size=(2, 2), stride=(2, 2), padding=0, dilation=1, ceil_mode=False)
    (3): Conv2d(16, 64, kernel_size=(2, 2), stride=(1, 1))
    (4): ReLU()
  )
  (actor): Sequential(
    (0): Linear(in_features=64, out_features=64, bias=True)
    (1): Tanh()
    (2): Linear(in_features=64, out_features=7, bias=True)
  )
  (critic): Sequential(
    (0): Linear(in_features=64, out_features=64, bias=True)
    (1): Tanh()
    (2): Linear(in_features=64, out_features=1, bias=True)
  )
)
Created model Testrun123\epoch_0

--------------------------------------------------------------
                     START EPOCH 1
--------------------------------------------------------------

Copied Agent! Testrun123\epoch_1 ---> Testrun123\epoch_1_curric0_gen1
	Algorithm loaded in 12.42 sec
	['MiniGrid-DoorKey-8x8-custom-diff0', 'MiniGrid-DoorKey-10x10-custom-diff0'] | Testrun123\epoch_1_curric0_gen1 | curF 3072 | U 1 | AllF 0003072 | FPS 0593 | D 17 | rR:msmM 0.000 0.00 0.00 0.00 | F:msmM 0.0 0.0 0 0 | H 1.79 | V 0.1760 | pL 0.0115 | vL 0.0310 | g 0.1847
…
