…
srun: verbose             : 1
srun: -------------------- --------------------
srun: end of defined options
srun: jobid 1107088: nodes(1):`cp2019-12', cpu counts: 2(x1)
srun: launch/slurm: launch_p_step_launch: CpuBindType=(null type)
srun: launching StepId=1107088.0 on host cp2019-12, 1 tasks: 0
srun: route/default: init: route default plugin loaded
srun: launch/slurm: _task_start: Node cp2019-12, 1 tasks started
pygame 2.4.0 (SDL 2.26.4, Python 3.10.9)
Hello from the pygame community. https://www.pygame.org/contribute.html
Device: cpu
Creating model. . .
ACModel(
  (image_conv): Sequential(
    (0): Conv2d(3, 16, kernel_size=(2, 2), stride=(1, 1))
    (1): ReLU()
    (2): MaxPool2d(kernel_size=(2, 2), stride=(2, 2), padding=0, dilation=1, ceil_mode=False)
    (3): Conv2d(16, 64, kernel_size=(2, 2), stride=(1, 1))
    (4): ReLU()
  )
  (actor): Sequential(
    (0): Linear(in_features=64, out_features=64, bias=True)
    (1): Tanh()
    (2): Linear(in_features=64, out_features=7, bias=True)
  )
  (critic): Sequential(
    (0): Linear(in_features=64, out_features=64, bias=True)
    (1): Tanh()
    (2): Linear(in_features=64, out_features=1, bias=True)
  )
)
Created model TESTdebug_s8515/epoch_0

The training will go on for 101 epochs, seed: 8515

ACModel(
  (image_conv): Sequential(
    (0): Conv2d(3, 16, kernel_size=(2, 2), stride=(1, 1))
    (1): ReLU()
    (2): MaxPool2d(kernel_size=(2, 2), stride=(2, 2), padding=0, dilation=1, ceil_mode=False)
    (3): Conv2d(16, 64, kernel_size=(2, 2), stride=(1, 1))
    (4): ReLU()
  )
  (actor): Sequential(
    (0): Linear(in_features=64, out_features=64, bias=True)
    (1): Tanh()
    (2): Linear(in_features=64, out_features=7, bias=True)
  )
  (critic): Sequential(
    (0): Linear(in_features=64, out_features=64, bias=True)
    (1): Tanh()
    (2): Linear(in_features=64, out_features=1, bias=True)
  )
)
Created model TESTdebug_s8515/epoch_0

Trained on ['MiniGrid-DoorKey-8x8-custom-diff1.0', 'MiniGrid-DoorKey-10x10-custom-diff1.0'] using model TESTdebug_s8515/epoch_1_curric0_gen1 for 51200 frames. Duration 44.89627480506897. Fps: ??
Evaluate agent TEST 5.827499985694885
EVALUATE PYMOO DONE. Generation 1
currentRewards {'gen1': array([5.82749999])}
Best results in epoch 1 came from curriculum [['MiniGrid-DoorKey-8x8-custom-diff1.0', 'MiniGrid-DoorKey-10x10-custom-diff1.0']]
…
