…
curricula list start [[['MiniGrid-DoorKey-8x8-custom-diff1.0', 'MiniGrid-DoorKey-8x8-custom-diff1.0'], ['MiniGrid-DoorKey-12x12-custom-diff1.0', 'MiniGrid-DoorKey-6x6-custom-diff1.0'], ['MiniGrid-DoorKey-10x10-custom-diff1.0', 'MiniGrid-DoorKey-8x8-custom-diff1.0']], [['MiniGrid-DoorKey-12x12-custom-diff1.0', 'MiniGrid-DoorKey-6x6-custom-diff1.0'], ['MiniGrid-DoorKey-6x6-custom-diff1.0', 'MiniGrid-DoorKey-12x12-custom-diff1.0'], ['MiniGrid-DoorKey-10x10-custom-diff1.0', 'MiniGrid-DoorKey-10x10-custom-diff1.0']], [['MiniGrid-DoorKey-8x8-custom-diff1.0', 'MiniGrid-DoorKey-8x8-custom-diff1.0'], ['MiniGrid-DoorKey-10x10-custom-diff1.0', 'MiniGrid-DoorKey-10x10-custom-diff1.0'], ['MiniGrid-DoorKey-10x10-custom-diff1.0', 'MiniGrid-DoorKey-12x12-custom-diff1.0']]]
Creating model. . .
ACModel(
  (image_conv): Sequential(
    (0): Conv2d(3, 16, kernel_size=(2, 2), stride=(1, 1))
    (1): ReLU()
    (2): MaxPool2d(kernel_size=(2, 2), stride=(2, 2), padding=0, dilation=1, ceil_mode=False)
    (3): Conv2d(16, 64, kernel_size=(2, 2), stride=(1, 1))
    (4): ReLU()
  )
  (actor): Sequential(
    (0): Linear(in_features=64, out_features=64, bias=True)
    (1): Tanh()
    (2): Linear(in_features=64, out_features=7, bias=True)
  )
  (critic): Sequential(
    (0): Linear(in_features=64, out_features=64, bias=True)
    (1): Tanh()
    (2): Linear(in_features=64, out_features=1, bias=True)
  )
)
Created model rrh_100k_s3053/epoch_0
Copied Agent! rrh_100k_s3053/epoch_0 ---> rrh_100k_s3053/epoch_1

The training will go on for 37 epochs

ACModel(
  (image_conv): Sequential(
    (0): Conv2d(3, 16, kernel_size=(2, 2), stride=(1, 1))
    (1): ReLU()
    (2): MaxPool2d(kernel_size=(2, 2), stride=(2, 2), padding=0, dilation=1, ceil_mode=False)
    (3): Conv2d(16, 64, kernel_size=(2, 2), stride=(1, 1))
    (4): ReLU()
  )
  (actor): Sequential(
    (0): Linear(in_features=64, out_features=64, bias=True)
    (1): Tanh()
    (2): Linear(in_features=64, out_features=7, bias=True)
  )
  (critic): Sequential(
    (0): Linear(in_features=64, out_features=64, bias=True)
    (1): Tanh()
    (2): Linear(in_features=64, out_features=1, bias=True)
  )
)
Created model rrh_100k_s3053/epoch_0

--------------------------------------------------------------
                     START EPOCH 1
--------------------------------------------------------------

Copied Agent! rrh_100k_s3053/epoch_1 ---> rrh_100k_s3053/epoch_1_curric0
	Algorithm loaded in 0.22 sec
	['MiniGrid-DoorKey-8x8-custom-diff1.0', 'MiniGrid-DoorKey-8x8-custom-diff1.0'] | rrh_100k_s3053/epoch_1_curric0 | curF 6144 | U 1 | AllF 0006144 | FPS 0746 | D 8 | rR:msmM 0.000 0.00 0.00 0.00 | F:msmM 0.0 0.0 0 0 | H 1.90 | V 0.1910 | pL 0.0221 | vL 0.0046 | g 0.0761
…
