…
curricula list start [[['MiniGrid-DoorKey-6x6-custom-diff1.0', 'MiniGrid-DoorKey-8x8-custom-diff1.0'], ['MiniGrid-DoorKey-12x12-custom-diff1.0', 'MiniGrid-DoorKey-10x10-custom-diff1.0'], ['MiniGrid-DoorKey-8x8-custom-diff1.0', 'MiniGrid-DoorKey-6x6-custom-diff1.0']], [['MiniGrid-DoorKey-8x8-custom-diff1.0', 'MiniGrid-DoorKey-12x12-custom-diff1.0'], ['MiniGrid-DoorKey-6x6-custom-diff1.0', 'MiniGrid-DoorKey-10x10-custom-diff1.0'], ['MiniGrid-DoorKey-8x8-custom-diff1.0', 'MiniGrid-DoorKey-10x10-custom-diff1.0']], [['MiniGrid-DoorKey-8x8-custom-diff1.0', 'MiniGrid-DoorKey-8x8-custom-diff1.0'], ['MiniGrid-DoorKey-8x8-custom-diff1.0', 'MiniGrid-DoorKey-12x12-custom-diff1.0'], ['MiniGrid-DoorKey-6x6-custom-diff1.0', 'MiniGrid-DoorKey-12x12-custom-diff1.0']]]
Creating model. . .
ACModel(
  (image_conv): Sequential(
    (0): Conv2d(3, 16, kernel_size=(2, 2), stride=(1, 1))
    (1): ReLU()
    (2): MaxPool2d(kernel_size=(2, 2), stride=(2, 2), padding=0, dilation=1, ceil_mode=False)
    (3): Conv2d(16, 64, kernel_size=(2, 2), stride=(1, 1))
    (4): ReLU()
  )
  (actor): Sequential(
    (0): Linear(in_features=64, out_features=64, bias=True)
    (1): Tanh()
    (2): Linear(in_features=64, out_features=7, bias=True)
  )
  (critic): Sequential(
    (0): Linear(in_features=64, out_features=64, bias=True)
    (1): Tanh()
    (2): Linear(in_features=64, out_features=1, bias=True)
  )
)
Created model rrh_8258/epoch_0
Copied Agent! rrh_8258/epoch_0 ---> rrh_8258/epoch_1

The training will go on for 37 epochs

ACModel(
  (image_conv): Sequential(
    (0): Conv2d(3, 16, kernel_size=(2, 2), stride=(1, 1))
    (1): ReLU()
    (2): MaxPool2d(kernel_size=(2, 2), stride=(2, 2), padding=0, dilation=1, ceil_mode=False)
    (3): Conv2d(16, 64, kernel_size=(2, 2), stride=(1, 1))
    (4): ReLU()
  )
  (actor): Sequential(
    (0): Linear(in_features=64, out_features=64, bias=True)
    (1): Tanh()
    (2): Linear(in_features=64, out_features=7, bias=True)
  )
  (critic): Sequential(
    (0): Linear(in_features=64, out_features=64, bias=True)
    (1): Tanh()
    (2): Linear(in_features=64, out_features=1, bias=True)
  )
)
Created model rrh_8258/epoch_0

--------------------------------------------------------------
                     START EPOCH 1
--------------------------------------------------------------

Copied Agent! rrh_8258/epoch_1 ---> rrh_8258/epoch_1_curric0
	Algorithm loaded in 0.24 sec
done= 0 toTrain= 150000
3 
 [popenfile(path='/home/schlecht/Test12
…
