…
  File "/home/schlecht/nobackup/MinigridCurriculumLearning/utils/storage.py", line 16, in create_folders_if_necessary
    os.makedirs(dirname)
  File "/home/schlecht/tmp/Anaconda/home/schlecht/AnacondaNeu/lib/python3.10/os.py", line 225, in makedirs
    mkdir(name, mode)
FileExistsError: [Errno 17] File exists: 'storage/75k_3step_2gen_4curric_s2330'
pygame 2.4.0 (SDL 2.26.4, Python 3.10.9)
Hello from the pygame community. https://www.pygame.org/contribute.html
srun: launch/slurm: _task_finish: Received task exit notification for 1 task of StepId=1106732.0 (status=0x0100).
srun: error: helena4: task 0: Exited with exit code 1
ACModel(
  (image_conv): Sequential(
    (0): Conv2d(3, 16, kernel_size=(2, 2), stride=(1, 1))
    (1): ReLU()
    (2): MaxPool2d(kernel_size=(2, 2), stride=(2, 2), padding=0, dilation=1, ceil_mode=False)
    (3): Conv2d(16, 64, kernel_size=(2, 2), stride=(1, 1))
    (4): ReLU()
  )
  (actor): Sequential(
    (0): Linear(in_features=64, out_features=64, bias=True)
    (1): Tanh()
    (2): Linear(in_features=64, out_features=7, bias=True)
  )
  (critic): Sequential(
    (0): Linear(in_features=64, out_features=64, bias=True)
    (1): Tanh()
    (2): Linear(in_features=64, out_features=1, bias=True)
  )
)
Created model 75k_3step_2gen_4curric_s2330/epoch_0

The training will go on for 67 epochs, seed: 2330

ACModel(
  (image_conv): Sequential(
    (0): Conv2d(3, 16, kernel_size=(2, 2), stride=(1, 1))
    (1): ReLU()
    (2): MaxPool2d(kernel_size=(2, 2), stride=(2, 2), padding=0, dilation=1, ceil_mode=False)
    (3): Conv2d(16, 64, kernel_size=(2, 2), stride=(1, 1))
    (4): ReLU()
  )
  (actor): Sequential(
    (0): Linear(in_features=64, out_features=64, bias=True)
    (1): Tanh()
    (2): Linear(in_features=64, out_features=7, bias=True)
  )
  (critic): Sequential(
    (0): Linear(in_features=64, out_features=64, bias=True)
    (1): Tanh()
    (2): Linear(in_features=64, out_features=1, bias=True)
  )
)
Created model 75k_3step_2gen_4curric_s2330/epoch_0

Trained on ['MiniGrid-DoorKey-12x12-custom-diff1.0', 'MiniGrid-DoorKey-12x12-custom-diff1.0'] using model 75k_3step_2gen_4curric_s2330/epoch_1_curric0_gen1 for 77824 frames. Duration 68.047367811203. Fps: ??
Evaluate agent TEST 0.053437499329447746

Trained on ['MiniGrid-DoorKey-6x6-custom-diff1.0', 'MiniGrid-DoorKey-10x10-custom-diff1.0'] using model 75k_3step_2gen_4curric_s2330/epoch_1_curric0_gen1 for 77824 frames. Duration 66.85598349571228. Fps: ??
…
