Device: cpu
Creating model. . .
ACModel(
  (image_conv): Sequential(
    (0): Conv2d(3, 16, kernel_size=(2, 2), stride=(1, 1))
    (1): ReLU()
    (2): MaxPool2d(kernel_size=(2, 2), stride=(2, 2), padding=0, dilation=1, ceil_mode=False)
    (3): Conv2d(16, 64, kernel_size=(2, 2), stride=(1, 1))
    (4): ReLU()
  )
  (actor): Sequential(
    (0): Linear(in_features=64, out_features=64, bias=True)
    (1): Tanh()
    (2): Linear(in_features=64, out_features=7, bias=True)
  )
  (critic): Sequential(
    (0): Linear(in_features=64, out_features=64, bias=True)
    (1): Tanh()
    (2): Linear(in_features=64, out_features=1, bias=True)
  )
)
Created model s9152_150k_3step_3gen_3curric/epoch_0
Copied Agent! s9152_150k_3step_3gen_3curric/epoch_0 ---> s9152_150k_3step_3gen_3curric/epoch_1

The training will go on for 35 epochs

ACModel(
  (image_conv): Sequential(
    (0): Conv2d(3, 16, kernel_size=(2, 2), stride=(1, 1))
    (1): ReLU()
    (2): MaxPool2d(kernel_size=(2, 2), stride=(2, 2), padding=0, dilation=1, ceil_mode=False)
    (3): Conv2d(16, 64, kernel_size=(2, 2), stride=(1, 1))
    (4): ReLU()
  )
  (actor): Sequential(
    (0): Linear(in_features=64, out_features=64, bias=True)
    (1): Tanh()
    (2): Linear(in_features=64, out_features=7, bias=True)
  )
  (critic): Sequential(
    (0): Linear(in_features=64, out_features=64, bias=True)
    (1): Tanh()
    (2): Linear(in_features=64, out_features=1, bias=True)
  )
)
Created model s9152_150k_3step_3gen_3curric/epoch_0

--------------------------------------------------------------
                     START EPOCH 1
--------------------------------------------------------------

Copied Agent! s9152_150k_3step_3gen_3curric/epoch_1 ---> s9152_150k_3step_3gen_3curric/epoch_1_curric0_gen1
	Algorithm loaded in 0.27 sec
…
