…
Grid-DoorKey-6x6-custom-diff0', 'MiniGrid-DoorKey-12x12-custom-diff0'], ['MiniGrid-DoorKey-12x12-custom-diff0', 'MiniGrid-DoorKey-6x6-custom-diff0']], [['MiniGrid-DoorKey-6x6-custom-diff0', 'MiniGrid-DoorKey-10x10-custom-diff0'], ['MiniGrid-DoorKey-12x12-custom-diff0', 'MiniGrid-DoorKey-8x8-custom-diff0'], ['MiniGrid-DoorKey-6x6-custom-diff0', 'MiniGrid-DoorKey-8x8-custom-diff0'], ['MiniGrid-DoorKey-6x6-custom-diff0', 'MiniGrid-DoorKey-6x6-custom-diff0'], ['MiniGrid-DoorKey-8x8-custom-diff0', 'MiniGrid-DoorKey-8x8-custom-diff0']]]
Creating model. . .
ACModel(
  (image_conv): Sequential(
    (0): Conv2d(3, 16, kernel_size=(2, 2), stride=(1, 1))
    (1): ReLU()
    (2): MaxPool2d(kernel_size=(2, 2), stride=(2, 2), padding=0, dilation=1, ceil_mode=False)
    (3): Conv2d(16, 64, kernel_size=(2, 2), stride=(1, 1))
    (4): ReLU()
  )
  (actor): Sequential(
    (0): Linear(in_features=64, out_features=64, bias=True)
    (1): Tanh()
    (2): Linear(in_features=64, out_features=7, bias=True)
  )
  (critic): Sequential(
    (0): Linear(in_features=64, out_features=64, bias=True)
    (1): Tanh()
    (2): Linear(in_features=64, out_features=1, bias=True)
  )
)
Created model DI_50kSTEPS\epoch_0
Copied Agent! DI_50kSTEPS\epoch_0 ---> DI_50kSTEPS\epoch_1

The training will go on for 25 epochs

ACModel(
  (image_conv): Sequential(
    (0): Conv2d(3, 16, kernel_size=(2, 2), stride=(1, 1))
    (1): ReLU()
    (2): MaxPool2d(kernel_size=(2, 2), stride=(2, 2), padding=0, dilation=1, ceil_mode=False)
    (3): Conv2d(16, 64, kernel_size=(2, 2), stride=(1, 1))
    (4): ReLU()
  )
  (actor): Sequential(
    (0): Linear(in_features=64, out_features=64, bias=True)
    (1): Tanh()
    (2): Linear(in_features=64, out_features=7, bias=True)
  )
  (critic): Sequential(
    (0): Linear(in_features=64, out_features=64, bias=True)
    (1): Tanh()
    (2): Linear(in_features=64, out_features=1, bias=True)
  )
)
Created model DI_50kSTEPS\epoch_0

--------------------------------------------------------------
                     START EPOCH 1
--------------------------------------------------------------

Copied Agent! DI_50kSTEPS\epoch_1 ---> DI_50kSTEPS\epoch_1_curric0_gen1
	Algorithm loaded in 16.92 sec
	['MiniGrid-DoorKey-8x8-custom-diff0', 'MiniGrid-DoorKey-10x10-custom-diff0'] | DI_50kSTEPS\epoch_1_curric0_gen1 | curF 4096 | U 1 | AllF 0004096 | FPS 0681 | D 22 | rR:msmM 0.000 0.00 0.00 0.00 | F:msmM 0.0 0.0 0 0 | H 1.79 | V 0.1614 | pL 0.0189 | vL 0.0309 | g 0.2236
…
