…
srun: verbose             : 1
srun: -------------------- --------------------
srun: end of defined options
srun: jobid 1082785: nodes(1):`paris4', cpu counts: 2(x1)
srun: launch/slurm: launch_p_step_launch: CpuBindType=(null type)
srun: launching StepId=1082785.0 on host paris4, 1 tasks: 0
srun: route/default: init: route default plugin loaded
srun: launch/slurm: _task_start: Node paris4, 1 tasks started
pygame 2.4.0 (SDL 2.26.4, Python 3.10.9)
Hello from the pygame community. https://www.pygame.org/contribute.html
Device: cpu
difficultystepsize 100000
Creating model. . .
ACModel(
  (image_conv): Sequential(
    (0): Conv2d(3, 16, kernel_size=(2, 2), stride=(1, 1))
    (1): ReLU()
    (2): MaxPool2d(kernel_size=(2, 2), stride=(2, 2), padding=0, dilation=1, ceil_mode=False)
    (3): Conv2d(16, 64, kernel_size=(2, 2), stride=(1, 1))
    (4): ReLU()
  )
  (actor): Sequential(
    (0): Linear(in_features=64, out_features=64, bias=True)
    (1): Tanh()
    (2): Linear(in_features=64, out_features=7, bias=True)
  )
  (critic): Sequential(
    (0): Linear(in_features=64, out_features=64, bias=True)
    (1): Tanh()
    (2): Linear(in_features=64, out_features=1, bias=True)
  )
)
Created model test12x12_100k_3step_3gen_3curric/epoch_0
Copied Agent! test12x12_100k_3step_3gen_3curric/epoch_0 ---> test12x12_100k_3step_3gen_3curric/epoch_1

The training will go on for 25 epochs

ACModel(
  (image_conv): Sequential(
    (0): Conv2d(3, 16, kernel_size=(2, 2), stride=(1, 1))
    (1): ReLU()
    (2): MaxPool2d(kernel_size=(2, 2), stride=(2, 2), padding=0, dilation=1, ceil_mode=False)
    (3): Conv2d(16, 64, kernel_size=(2, 2), stride=(1, 1))
    (4): ReLU()
  )
  (actor): Sequential(
    (0): Linear(in_features=64, out_features=64, bias=True)
    (1): Tanh()
    (2): Linear(in_features=64, out_features=7, bias=True)
  )
  (critic): Sequential(
    (0): Linear(in_features=64, out_features=64, bias=True)
    (1): Tanh()
    (2): Linear(in_features=64, out_features=1, bias=True)
  )
)
Created model test12x12_100k_3step_3gen_3curric/epoch_0

--------------------------------------------------------------
                     START EPOCH 1
--------------------------------------------------------------

Copied Agent! test12x12_100k_3step_3gen_3curric/epoch_1 ---> test12x12_100k_3step_3gen_3curric/epoch_1_curric0_gen1
penv constructor
…
