Device: cpu
Creating model. . .
ACModel(
  (image_conv): Sequential(
    (0): Conv2d(3, 16, kernel_size=(2, 2), stride=(1, 1))
    (1): ReLU()
    (2): MaxPool2d(kernel_size=(2, 2), stride=(2, 2), padding=0, dilation=1, ceil_mode=False)
    (3): Conv2d(16, 64, kernel_size=(2, 2), stride=(1, 1))
    (4): ReLU()
  )
  (actor): Sequential(
    (0): Linear(in_features=64, out_features=64, bias=True)
    (1): Tanh()
    (2): Linear(in_features=64, out_features=7, bias=True)
  )
  (critic): Sequential(
    (0): Linear(in_features=64, out_features=64, bias=True)
    (1): Tanh()
    (2): Linear(in_features=64, out_features=1, bias=True)
  )
)
Created model 75k_3step_3gen_3curric_s1214/epoch_0
Copied Agent! 75k_3step_3gen_3curric_s1214/epoch_0 ---> 75k_3step_3gen_3curric_s1214/epoch_1

The training will go on for 67 epochs

ACModel(
  (image_conv): Sequential(
    (0): Conv2d(3, 16, kernel_size=(2, 2), stride=(1, 1))
    (1): ReLU()
    (2): MaxPool2d(kernel_size=(2, 2), stride=(2, 2), padding=0, dilation=1, ceil_mode=False)
    (3): Conv2d(16, 64, kernel_size=(2, 2), stride=(1, 1))
    (4): ReLU()
  )
  (actor): Sequential(
    (0): Linear(in_features=64, out_features=64, bias=True)
    (1): Tanh()
    (2): Linear(in_features=64, out_features=7, bias=True)
  )
  (critic): Sequential(
    (0): Linear(in_features=64, out_features=64, bias=True)
    (1): Tanh()
    (2): Linear(in_features=64, out_features=1, bias=True)
  )
)
Created model 75k_3step_3gen_3curric_s1214/epoch_0

--------------------------------------------------------------
                     START EPOCH 1
--------------------------------------------------------------

Copied Agent! 75k_3step_3gen_3curric_s1214/epoch_1 ---> 75k_3step_3gen_3curric_s1214/epoch_1_curric0_gen1
	Algorithm loaded in 0.27 sec
	['MiniGrid-DoorKey-8x8-custom-diff1.0', 'MiniGrid-DoorKey-8x8-custom-diff1.0'] | 75k_3step_3gen_3curric_s1214/epoch_1_curric0_gen1 | curF 4096 | U 1 | AllF 0004096 | FPS 0921 | D 4 | rR:msmM 0.000 0.00 0.00 0.00 | F:msmM 0.0 0.0 0 0 | H 1.87 | V -0.1285 | pL -0.0090 | vL 0.0267 | g 0.1651
…
